…
Raga: kalyani 	 Number of Input files: 665
Raga: pantuvarali 	 Number of Input files: 377
Raga: kedaragaula 	 Number of Input files: 273
Raga: thodi 	 Number of Input files: 556
Raga: begada 	 Number of Input files: 615
Raga: bhairavi 	 Number of Input files: 567
Raga: mohana 	 Number of Input files: 436
Raga: sankarabharana 	 Number of Input files: 770
4259
4259
Model: "sequential_1"
_________________________________________________________________
Layer (type)                 Output Shape              Param #   
=================================================================
conv2d_1 (Conv2D)            (None, 478, 638, 32)      896       
_________________________________________________________________
activation_1 (Activation)    (None, 478, 638, 32)      0         
_________________________________________________________________
max_pooling2d_1 (MaxPooling2 (None, 119, 159, 32)      0         
_________________________________________________________________
conv2d_2 (Conv2D)            (None, 117, 157, 32)      9248      
_________________________________________________________________
activation_2 (Activation)    (None, 117, 157, 32)      0         
_________________________________________________________________
max_pooling2d_2 (MaxPooling2 (None, 29, 39, 32)        0         
_________________________________________________________________
conv2d_3 (Conv2D)            (None, 27, 37, 32)        9248      
_________________________________________________________________
activation_3 (Activation)    (None, 27, 37, 32)        0         
_________________________________________________________________
max_pooling2d_3 (MaxPooling2 (None, 6, 9, 32)          0         
_________________________________________________________________
conv2d_4 (Conv2D)            (None, 4, 7, 32)          9248      
_________________________________________________________________
activation_4 (Activation)    (None, 4, 7, 32)          0         
_________________________________________________________________
max_pooling2d_4 (MaxPooling2 (None, 2, 3, 32)          0         
_________________________________________________________________
flatten_1 (Flatten)          (None, 192)               0         
_________________________________________________________________
dense_1 (Dense)              (None, 32)                6176      
_________________________________________________________________
activation_5 (Activation)    (None, 32)                0         
_________________________________________________________________
dense_2 (Dense)              (None, 32)                1056      
_________________________________________________________________
activation_6 (Activation)    (None, 32)                0         
_________________________________________________________________
dense_3 (Dense)              (None, 8)                 264       
_________________________________________________________________
activation_7 (Activation)    (None, 8)                 0         
=================================================================
Total params: 36,136
Trainable params: 36,136
Non-trainable params: 0
_________________________________________________________________
None
Traceback (most recent call last):
  File "max_pool_model.py", line 98, in <module>
    history=model.fit(np.array(X_train), np.array(y_train), validation_split=0.0, epochs=200, verbose=2)
…
