…
Raga: kalyani 	 Number of Input files: 665
Raga: pantuvarali 	 Number of Input files: 377
Raga: kedaragaula 	 Number of Input files: 273
Raga: thodi 	 Number of Input files: 556
Raga: begada 	 Number of Input files: 615
Raga: bhairavi 	 Number of Input files: 567
Raga: mohana 	 Number of Input files: 436
Raga: sankarabharana 	 Number of Input files: 770
4259
4259
Model: "sequential_1"
_________________________________________________________________
Layer (type)                 Output Shape              Param #   
=================================================================
conv2d_1 (Conv2D)            (None, 478, 638, 32)      896       
_________________________________________________________________
activation_1 (Activation)    (None, 478, 638, 32)      0         
_________________________________________________________________
max_pooling2d_1 (MaxPooling2 (None, 119, 159, 32)      0         
_________________________________________________________________
conv2d_2 (Conv2D)            (None, 117, 157, 32)      9248      
_________________________________________________________________
activation_2 (Activation)    (None, 117, 157, 32)      0         
_________________________________________________________________
max_pooling2d_2 (MaxPooling2 (None, 29, 39, 32)        0         
_________________________________________________________________
conv2d_3 (Conv2D)            (None, 27, 37, 32)        9248      
_________________________________________________________________
activation_3 (Activation)    (None, 27, 37, 32)        0         
_________________________________________________________________
max_pooling2d_3 (MaxPooling2 (None, 6, 9, 32)          0         
_________________________________________________________________
conv2d_4 (Conv2D)            (None, 4, 7, 32)          9248      
_________________________________________________________________
activation_4 (Activation)    (None, 4, 7, 32)          0         
_________________________________________________________________
max_pooling2d_4 (MaxPooling2 (None, 2, 3, 32)          0         
_________________________________________________________________
flatten_1 (Flatten)          (None, 192)               0         
_________________________________________________________________
dense_1 (Dense)              (None, 32)                6176      
_________________________________________________________________
activation_5 (Activation)    (None, 32)                0         
_________________________________________________________________
dropout_1 (Dropout)          (None, 32)                0         
_________________________________________________________________
dense_2 (Dense)              (None, 32)                1056      
_________________________________________________________________
activation_6 (Activation)    (None, 32)                0         
_________________________________________________________________
dropout_2 (Dropout)          (None, 32)                0         
_________________________________________________________________
dense_3 (Dense)              (None, 8)                 264       
_________________________________________________________________
activation_7 (Activation)    (None, 8)                 0         
=================================================================
Total params: 36,136
Trainable params: 36,136
Non-trainable params: 0
_________________________________________________________________
None
Epoch 1/200
 - 80s - loss: 2.8020 - accuracy: 0.1578
Epoch 2/200
 - 79s - loss: 2.0682 - accuracy: 0.1785
Epoch 3/200
 - 79s - loss: 2.1514 - accuracy: 0.1750
Epoch 4/200
 - 82s - loss: 2.0449 - accuracy: 0.1772
…
Raga: kalyani 	 Number of Input files: 665
Raga: pantuvarali 	 Number of Input files: 377
Raga: kedaragaula 	 Number of Input files: 273
Raga: thodi 	 Number of Input files: 556
Raga: begada 	 Number of Input files: 615
Raga: bhairavi 	 Number of Input files: 567
Raga: mohana 	 Number of Input files: 436
Raga: sankarabharana 	 Number of Input files: 770
4259
4259
Model: "sequential_1"
_________________________________________________________________
Layer (type)                 Output Shape              Param #   
=================================================================
conv2d_1 (Conv2D)            (None, 478, 638, 32)      896       
_________________________________________________________________
activation_1 (Activation)    (None, 478, 638, 32)      0         
_________________________________________________________________
max_pooling2d_1 (MaxPooling2 (None, 119, 159, 32)      0         
_________________________________________________________________
conv2d_2 (Conv2D)            (None, 117, 157, 64)      18496     
_________________________________________________________________
activation_2 (Activation)    (None, 117, 157, 64)      0         
_________________________________________________________________
max_pooling2d_2 (MaxPooling2 (None, 29, 39, 64)        0         
_________________________________________________________________
conv2d_3 (Conv2D)            (None, 27, 37, 128)       73856     
_________________________________________________________________
activation_3 (Activation)    (None, 27, 37, 128)       0         
_________________________________________________________________
max_pooling2d_3 (MaxPooling2 (None, 6, 9, 128)         0         
_________________________________________________________________
conv2d_4 (Conv2D)            (None, 4, 7, 128)         147584    
_________________________________________________________________
activation_4 (Activation)    (None, 4, 7, 128)         0         
_________________________________________________________________
max_pooling2d_4 (MaxPooling2 (None, 2, 3, 128)         0         
_________________________________________________________________
flatten_1 (Flatten)          (None, 768)               0         
_________________________________________________________________
dense_1 (Dense)              (None, 32)                24608     
_________________________________________________________________
activation_5 (Activation)    (None, 32)                0         
_________________________________________________________________
dropout_1 (Dropout)          (None, 32)                0         
_________________________________________________________________
dense_2 (Dense)              (None, 8)                 264       
_________________________________________________________________
activation_6 (Activation)    (None, 8)                 0         
=================================================================
Total params: 265,704
Trainable params: 265,704
Non-trainable params: 0
_________________________________________________________________
None
Epoch 1/200
 - 103s - loss: 4.3211 - accuracy: 0.1584
Epoch 2/200
 - 99s - loss: 2.0657 - accuracy: 0.1778
Epoch 3/200
 - 97s - loss: 2.0575 - accuracy: 0.1778
Epoch 4/200
 - 99s - loss: 2.0517 - accuracy: 0.1778
…
