…
Raga: kalyani 	 Number of Input files: 665
Raga: pantuvarali 	 Number of Input files: 377
Raga: kedaragaula 	 Number of Input files: 273
Raga: thodi 	 Number of Input files: 556
Raga: begada 	 Number of Input files: 615
Raga: bhairavi 	 Number of Input files: 567
Raga: mohana 	 Number of Input files: 436
Raga: sankarabharana 	 Number of Input files: 770
4259
4259
Model: "sequential_1"
_________________________________________________________________
Layer (type)                 Output Shape              Param #   
=================================================================
conv2d_1 (Conv2D)            (None, 478, 638, 32)      896       
_________________________________________________________________
activation_1 (Activation)    (None, 478, 638, 32)      0         
_________________________________________________________________
max_pooling2d_1 (MaxPooling2 (None, 119, 159, 32)      0         
_________________________________________________________________
conv2d_2 (Conv2D)            (None, 117, 157, 64)      18496     
_________________________________________________________________
activation_2 (Activation)    (None, 117, 157, 64)      0         
_________________________________________________________________
max_pooling2d_2 (MaxPooling2 (None, 29, 39, 64)        0         
_________________________________________________________________
conv2d_3 (Conv2D)            (None, 27, 37, 128)       73856     
_________________________________________________________________
activation_3 (Activation)    (None, 27, 37, 128)       0         
_________________________________________________________________
max_pooling2d_3 (MaxPooling2 (None, 6, 9, 128)         0         
_________________________________________________________________
conv2d_4 (Conv2D)            (None, 4, 7, 128)         147584    
_________________________________________________________________
activation_4 (Activation)    (None, 4, 7, 128)         0         
_________________________________________________________________
max_pooling2d_4 (MaxPooling2 (None, 2, 3, 128)         0         
_________________________________________________________________
conv2d_5 (Conv2D)            (None, 1, 2, 256)         131328    
_________________________________________________________________
activation_5 (Activation)    (None, 1, 2, 256)         0         
_________________________________________________________________
max_pooling2d_5 (MaxPooling2 (None, 1, 1, 256)         0         
_________________________________________________________________
flatten_1 (Flatten)          (None, 256)               0         
_________________________________________________________________
dense_1 (Dense)              (None, 8)                 2056      
_________________________________________________________________
activation_6 (Activation)    (None, 8)                 0         
=================================================================
Total params: 374,216
Trainable params: 374,216
Non-trainable params: 0
_________________________________________________________________
None
Train on 2555 samples, validate on 639 samples
Epoch 1/200
 - 93s - loss: 3.5426 - accuracy: 0.1875 - val_loss: 1.9324 - val_accuracy: 0.2567
Epoch 2/200
 - 90s - loss: 1.9226 - accuracy: 0.2505 - val_loss: 1.8831 - val_accuracy: 0.2582
…
Raga: kalyani 	 Number of Input files: 665
Raga: pantuvarali 	 Number of Input files: 377
Raga: kedaragaula 	 Number of Input files: 273
Raga: thodi 	 Number of Input files: 556
Raga: begada 	 Number of Input files: 615
Raga: bhairavi 	 Number of Input files: 567
Raga: mohana 	 Number of Input files: 436
Raga: sankarabharana 	 Number of Input files: 770
4259
4259
Model: "sequential_1"
_________________________________________________________________
Layer (type)                 Output Shape              Param #   
=================================================================
conv2d_1 (Conv2D)            (None, 478, 638, 32)      896       
_________________________________________________________________
activation_1 (Activation)    (None, 478, 638, 32)      0         
_________________________________________________________________
max_pooling2d_1 (MaxPooling2 (None, 119, 159, 32)      0         
_________________________________________________________________
conv2d_2 (Conv2D)            (None, 117, 157, 64)      18496     
_________________________________________________________________
activation_2 (Activation)    (None, 117, 157, 64)      0         
_________________________________________________________________
max_pooling2d_2 (MaxPooling2 (None, 29, 39, 64)        0         
_________________________________________________________________
conv2d_3 (Conv2D)            (None, 27, 37, 128)       73856     
_________________________________________________________________
activation_3 (Activation)    (None, 27, 37, 128)       0         
_________________________________________________________________
max_pooling2d_3 (MaxPooling2 (None, 6, 9, 128)         0         
_________________________________________________________________
conv2d_4 (Conv2D)            (None, 4, 7, 128)         147584    
_________________________________________________________________
activation_4 (Activation)    (None, 4, 7, 128)         0         
_________________________________________________________________
max_pooling2d_4 (MaxPooling2 (None, 2, 3, 128)         0         
_________________________________________________________________
flatten_1 (Flatten)          (None, 768)               0         
_________________________________________________________________
dense_1 (Dense)              (None, 8)                 6152      
_________________________________________________________________
activation_5 (Activation)    (None, 8)                 0         
=================================================================
Total params: 246,984
Trainable params: 246,984
Non-trainable params: 0
_________________________________________________________________
None
Train on 2555 samples, validate on 639 samples
Epoch 1/200
 - 281s - loss: 5.4626 - accuracy: 0.1804 - val_loss: 2.0479 - val_accuracy: 0.1909
Epoch 2/200
 - 282s - loss: 2.0668 - accuracy: 0.2352 - val_loss: 1.9734 - val_accuracy: 0.2144
…
Raga: kalyani 	 Number of Input files: 665
Raga: pantuvarali 	 Number of Input files: 377
Raga: kedaragaula 	 Number of Input files: 273
Raga: thodi 	 Number of Input files: 556
Raga: begada 	 Number of Input files: 615
Raga: bhairavi 	 Number of Input files: 567
Raga: mohana 	 Number of Input files: 436
Raga: sankarabharana 	 Number of Input files: 770
4259
4259
Model: "sequential_1"
_________________________________________________________________
Layer (type)                 Output Shape              Param #   
=================================================================
conv2d_1 (Conv2D)            (None, 478, 638, 32)      896       
_________________________________________________________________
activation_1 (Activation)    (None, 478, 638, 32)      0         
_________________________________________________________________
batch_normalization_1 (Batch (None, 478, 638, 32)      128       
_________________________________________________________________
max_pooling2d_1 (MaxPooling2 (None, 119, 159, 32)      0         
_________________________________________________________________
conv2d_2 (Conv2D)            (None, 117, 157, 64)      18496     
_________________________________________________________________
activation_2 (Activation)    (None, 117, 157, 64)      0         
_________________________________________________________________
batch_normalization_2 (Batch (None, 117, 157, 64)      256       
_________________________________________________________________
max_pooling2d_2 (MaxPooling2 (None, 29, 39, 64)        0         
_________________________________________________________________
conv2d_3 (Conv2D)            (None, 27, 37, 128)       73856     
_________________________________________________________________
activation_3 (Activation)    (None, 27, 37, 128)       0         
_________________________________________________________________
batch_normalization_3 (Batch (None, 27, 37, 128)       512       
_________________________________________________________________
max_pooling2d_3 (MaxPooling2 (None, 6, 9, 128)         0         
_________________________________________________________________
conv2d_4 (Conv2D)            (None, 4, 7, 128)         147584    
_________________________________________________________________
activation_4 (Activation)    (None, 4, 7, 128)         0         
_________________________________________________________________
batch_normalization_4 (Batch (None, 4, 7, 128)         512       
_________________________________________________________________
max_pooling2d_4 (MaxPooling2 (None, 2, 3, 128)         0         
_________________________________________________________________
flatten_1 (Flatten)          (None, 768)               0         
_________________________________________________________________
dense_1 (Dense)              (None, 8)                 6152      
_________________________________________________________________
activation_5 (Activation)    (None, 8)                 0         
=================================================================
Total params: 248,392
Trainable params: 247,688
Non-trainable params: 704
_________________________________________________________________
None
Train on 2555 samples, validate on 639 samples
Epoch 1/200
 - 294s - loss: 2.4933 - accuracy: 0.1836 - val_loss: 2.7318 - val_accuracy: 0.2285
Epoch 2/200
 - 292s - loss: 1.9438 - accuracy: 0.2630 - val_loss: 2.5573 - val_accuracy: 0.1909
…
