…
WARNING:tensorflow:From /usr/local/lib/python2.7/dist-packages/keras/backend/tensorflow_backend.py:422: The name tf.global_variables is deprecated. Please use tf.compat.v1.global_variables instead.

Raga: thodi 	 Number of Input files: 390
Raga: begada 	 Number of Input files: 615
Raga: bhairavi 	 Number of Input files: 508
Raga: mohana 	 Number of Input files: 436
Raga: sankarabharana 	 Number of Input files: 722
2671
2671
Model: "sequential_1"
_________________________________________________________________
Layer (type)                 Output Shape              Param #   
=================================================================
conv2d_1 (Conv2D)            (None, 478, 638, 32)      896       
_________________________________________________________________
activation_1 (Activation)    (None, 478, 638, 32)      0         
_________________________________________________________________
max_pooling2d_1 (MaxPooling2 (None, 239, 319, 32)      0         
_________________________________________________________________
conv2d_2 (Conv2D)            (None, 237, 317, 32)      9248      
_________________________________________________________________
activation_2 (Activation)    (None, 237, 317, 32)      0         
_________________________________________________________________
max_pooling2d_2 (MaxPooling2 (None, 118, 158, 32)      0         
_________________________________________________________________
conv2d_3 (Conv2D)            (None, 116, 156, 32)      9248      
_________________________________________________________________
activation_3 (Activation)    (None, 116, 156, 32)      0         
_________________________________________________________________
flatten_1 (Flatten)          (None, 579072)            0         
_________________________________________________________________
dense_1 (Dense)              (None, 32)                18530336  
_________________________________________________________________
activation_4 (Activation)    (None, 32)                0         
_________________________________________________________________
dropout_1 (Dropout)          (None, 32)                0         
_________________________________________________________________
dense_2 (Dense)              (None, 5)                 165       
_________________________________________________________________
activation_5 (Activation)    (None, 5)                 0         
=================================================================
Total params: 18,549,893
Trainable params: 18,549,893
Non-trainable params: 0
_________________________________________________________________
None
Train on 2136 samples, validate on 535 samples
Epoch 1/200
 - 174s - loss: 610.0642 - accuracy: 0.2762 - val_loss: 1.6570 - val_accuracy: 0.0000e+00
Epoch 2/200
 - 138s - loss: 1.5953 - accuracy: 0.2879 - val_loss: 1.7171 - val_accuracy: 0.0000e+00
…
WARNING:tensorflow:From /usr/local/lib/python2.7/dist-packages/keras/backend/tensorflow_backend.py:422: The name tf.global_variables is deprecated. Please use tf.compat.v1.global_variables instead.

Raga: thodi 	 Number of Input files: 556
Raga: begada 	 Number of Input files: 615
Raga: bhairavi 	 Number of Input files: 567
Raga: mohana 	 Number of Input files: 436
Raga: sankarabharana 	 Number of Input files: 751
2925
2925
Model: "sequential_1"
_________________________________________________________________
Layer (type)                 Output Shape              Param #   
=================================================================
conv2d_1 (Conv2D)            (None, 478, 638, 32)      896       
_________________________________________________________________
activation_1 (Activation)    (None, 478, 638, 32)      0         
_________________________________________________________________
conv2d_2 (Conv2D)            (None, 476, 636, 32)      9248      
_________________________________________________________________
activation_2 (Activation)    (None, 476, 636, 32)      0         
_________________________________________________________________
conv2d_3 (Conv2D)            (None, 474, 634, 32)      9248      
_________________________________________________________________
activation_3 (Activation)    (None, 474, 634, 32)      0         
_________________________________________________________________
conv2d_4 (Conv2D)            (None, 472, 632, 32)      9248      
_________________________________________________________________
activation_4 (Activation)    (None, 472, 632, 32)      0         
_________________________________________________________________
flatten_1 (Flatten)          (None, 9545728)           0         
_________________________________________________________________
dense_1 (Dense)              (None, 32)                305463328 
_________________________________________________________________
activation_5 (Activation)    (None, 32)                0         
_________________________________________________________________
dense_2 (Dense)              (None, 5)                 165       
_________________________________________________________________
activation_6 (Activation)    (None, 5)                 0         
=================================================================
Total params: 305,492,133
Trainable params: 305,492,133
Non-trainable params: 0
_________________________________________________________________
None
Train on 2340 samples, validate on 585 samples
Epoch 1/50
 - 736s - loss: 2425.2735 - accuracy: 0.2436 - val_loss: 3.5926 - val_accuracy: 0.0000e+00
Epoch 2/50
 - 739s - loss: 26.4767 - accuracy: 0.2953 - val_loss: 2.5806 - val_accuracy: 0.0068
…
