…
Raga: kalyani 	 Number of Input files: 665
Raga: pantuvarali 	 Number of Input files: 377
Raga: kedaragaula 	 Number of Input files: 273
Raga: thodi 	 Number of Input files: 556
Raga: begada 	 Number of Input files: 615
Raga: bhairavi 	 Number of Input files: 567
Raga: mohana 	 Number of Input files: 436
Raga: sankarabharana 	 Number of Input files: 770
4259
4259
Model: "sequential_1"
_________________________________________________________________
Layer (type)                 Output Shape              Param #   
=================================================================
conv2d_1 (Conv2D)            (None, 478, 638, 32)      896       
_________________________________________________________________
activation_1 (Activation)    (None, 478, 638, 32)      0         
_________________________________________________________________
batch_normalization_1 (Batch (None, 478, 638, 32)      128       
_________________________________________________________________
max_pooling2d_1 (MaxPooling2 (None, 119, 159, 32)      0         
_________________________________________________________________
conv2d_2 (Conv2D)            (None, 117, 157, 64)      18496     
_________________________________________________________________
activation_2 (Activation)    (None, 117, 157, 64)      0         
_________________________________________________________________
batch_normalization_2 (Batch (None, 117, 157, 64)      256       
_________________________________________________________________
max_pooling2d_2 (MaxPooling2 (None, 14, 19, 64)        0         
_________________________________________________________________
conv2d_3 (Conv2D)            (None, 12, 17, 128)       73856     
_________________________________________________________________
activation_3 (Activation)    (None, 12, 17, 128)       0         
_________________________________________________________________
batch_normalization_3 (Batch (None, 12, 17, 128)       512       
_________________________________________________________________
max_pooling2d_3 (MaxPooling2 (None, 1, 1, 128)         0         
_________________________________________________________________
flatten_1 (Flatten)          (None, 128)               0         
_________________________________________________________________
dense_1 (Dense)              (None, 8)                 1032      
_________________________________________________________________
activation_4 (Activation)    (None, 8)                 0         
=================================================================
Total params: 95,176
Trainable params: 94,728
Non-trainable params: 448
_________________________________________________________________
None
Train on 2555 samples, validate on 639 samples
Epoch 1/150
 - 265s - loss: 3.1501 - accuracy: 0.1765 - val_loss: 4.0349 - val_accuracy: 0.1158
Epoch 2/150
 - 262s - loss: 2.2151 - accuracy: 0.2039 - val_loss: 3.4767 - val_accuracy: 0.1064
…
