…
Raga: kalyani 	 Number of Input files: 665
Raga: pantuvarali 	 Number of Input files: 377
Raga: kedaragaula 	 Number of Input files: 273
Raga: thodi 	 Number of Input files: 556
Raga: begada 	 Number of Input files: 615
Raga: bhairavi 	 Number of Input files: 567
Raga: mohana 	 Number of Input files: 436
Raga: sankarabharana 	 Number of Input files: 770
4259
4259
Model: "sequential_1"
_________________________________________________________________
Layer (type)                 Output Shape              Param #   
=================================================================
conv2d_1 (Conv2D)            (None, 478, 638, 32)      896       
_________________________________________________________________
activation_1 (Activation)    (None, 478, 638, 32)      0         
_________________________________________________________________
batch_normalization_1 (Batch (None, 478, 638, 32)      128       
_________________________________________________________________
max_pooling2d_1 (MaxPooling2 (None, 119, 159, 32)      0         
_________________________________________________________________
conv2d_2 (Conv2D)            (None, 117, 157, 32)      9248      
_________________________________________________________________
activation_2 (Activation)    (None, 117, 157, 32)      0         
_________________________________________________________________
batch_normalization_2 (Batch (None, 117, 157, 32)      128       
_________________________________________________________________
max_pooling2d_2 (MaxPooling2 (None, 14, 19, 32)        0         
_________________________________________________________________
conv2d_3 (Conv2D)            (None, 12, 17, 64)        18496     
_________________________________________________________________
activation_3 (Activation)    (None, 12, 17, 64)        0         
_________________________________________________________________
batch_normalization_3 (Batch (None, 12, 17, 64)        256       
_________________________________________________________________
max_pooling2d_3 (MaxPooling2 (None, 1, 1, 64)          0         
_________________________________________________________________
flatten_1 (Flatten)          (None, 64)                0         
_________________________________________________________________
dense_1 (Dense)              (None, 128)               8320      
_________________________________________________________________
activation_4 (Activation)    (None, 128)               0         
_________________________________________________________________
dense_2 (Dense)              (None, 128)               16512     
_________________________________________________________________
activation_5 (Activation)    (None, 128)               0         
_________________________________________________________________
dense_3 (Dense)              (None, 8)                 1032      
_________________________________________________________________
activation_6 (Activation)    (None, 8)                 0         
=================================================================
Total params: 55,016
Trainable params: 54,760
Non-trainable params: 256
_________________________________________________________________
None
Train on 2896 samples, validate on 724 samples
Epoch 1/150
 - 320s - loss: 2.2630 - accuracy: 0.1771 - val_loss: 2.0875 - val_accuracy: 0.1561
Epoch 2/150
 - 310s - loss: 1.9681 - accuracy: 0.2182 - val_loss: 1.9768 - val_accuracy: 0.2251
…
